models/pytorch_multi_beer_style.pt (torch, 16799 bytes, 4 tensors)

weight f4 [32, 6]
0	0xc18dd239	-17.727648
1	0x40d15d47	6.5426364
2	0x412e60e6	10.898657
3	0x40d40d22	6.626603
4	0xc1262b46	-10.385565
5	0xc21c2177	-39.03268
6	0xbef75392	-0.48305947
7	0x3e2b3355	0.167188
8	0x3e6dd4d2	0.23225716
9	0xbe729810	-0.2369082
10	0x3f045505	0.5169223
11	0xbbb5bfd5	-0.00554655
12	0xc173a27e	-15.227171
13	0xc0c76dd7	-6.232158
14	0x40090f56	2.141561
15	0x4111817f	9.094115
16	0x40f8f6a7	7.780109
17	0x42a69fa2	83.31178
18	0x40f47abe	7.639983
19	0x4108042d	8.5010195
20	0xc107a153	-8.476886
21	0xc070951c	-3.759101
22	0x41776d7e	15.4642315
23	0xc25bc4b4	-54.942093
24	0xc14c723f	-12.777892
25	0xc1a6a5bb	-20.830923
26	0xc1d6e70f	-26.862822
27	0xc19f9e50	-19.952301
28	0xc1286299	-10.524072
29	0x40bd0fc7	5.908176
30	0xc1ed9fe7	-29.703077
31	0xbf990d34	-1.1957154
32	0x4125b583	10.356814
33	0x40cd8ce4	6.4234486
34	0xc10cbe95	-8.796529
35	0xc257cfc9	-53.952915
36	0xbfa20522	-1.2657816
37	0x41667bfa	14.405268
38	0x3e566ce5	0.20939977
39	0x4060e39a	3.5138917
40	0x4121ee7b	10.120723
41	0xc281b4b4	-64.852936
42	0xc0b84bbe	-5.759246
43	0x3fc7ba96	1.5603817
44	0x40a586fe	5.1727285
45	0xc0e652b0	-7.1975937
46	0x409e206c	4.9414577
47	0xc2319727	-44.39761
48	0x41d4e091	26.609652
49	0xc0d75e1f	-6.7302394
50	0xc1183174	-9.5120735
51	0xbfaf230f	-1.3682574
52	0x40914c8b	4.5405936
53	0xc1732207	-15.195807
54	0x40c5356d	6.1627717
55	0x410c8c61	8.784272
56	0x41add356	21.728191
57	0xc213b0c2	-36.922615
58	0xc0b24366	-5.5707273
59	0xc15b20b7	-13.695487
60	0x4095ae7f	4.677551
61	0x40295c39	2.6462538
62	0x40734d3a	3.8015885
63	0x41681ee9	14.507546
64	0xc09f5a3e	-4.979766
65	0xc2662646	-57.537376
66	0xc181f2fa	-16.24364
67	0x4081016a	4.0314226
68	0xc0cbb974	-6.3663883
69	0x41344ea9	11.269204
70	0x41777036	15.464895
71	0x42891605	68.54301
72	0xbf7def37	-0.9919314
73	0xc0b8c056	-5.7734785
74	0x3f90475b	1.1271776
75	0xc083508a	-4.1035814
76	0xc06bab38	-3.6823254
77	0xc14aa0e3	-12.664279
78	0xbe266e19	-0.16252936
79	0xc17ad587	-15.677131
80	0x40e4f66b	7.1550803
81	0xc1829411	-16.322298
82	0xc1b6cea8	-22.850906
83	0xc186bd7d	-16.842524
84	0x3ff538bc	1.9157939
85	0x40dc8cd6	6.892192
86	0x401a687c	2.4126272
87	0xc0399436	-2.899671
88	0x413c0f5d	11.753751
89	0xc2844a93	-66.14565
90	0xbf0b8f11	-0.54515177
91	0x3f713732	0.94224846
92	0x3fab681d	1.3391148
93	0x403d8383	2.9611518
94	0x3f8383c0	1.0274582
95	0xc1111fc7	-9.070258
96	0xc13d25e6	-11.821753
97	0xbdae788e	-0.08519088
98	0xc0d4939d	-6.643019
99	0xc154ffc7	-13.312446
100	0xc10666ee	-8.400129
101	0x428350cf	65.65783
102	0xbfe70cd3	-1.8050789
103	0xc0eb1c52	-7.347207
104	0xc115a7ea	-9.353495
105	0x40dc8061	6.8906713
106	0x405cb0c7	3.4482896
107	0x4299038a	76.50691
108	0x3db567ec	0.08857712
109	0xbe3288b5	-0.17434962
110	0xbed429b3	-0.41438064
111	0x3e97cabe	0.29646868
112	0x3e1a3bfc	0.15061945
113	0x3eaec1f3	0.34132347
114	0x4039dc44	2.904069
115	0x40aa283f	5.317413
116	0xc1a85277	-21.040266
117	0xbfbce075	-1.4755999
118	0x41536fbc	13.214779
119	0xc2381e73	-46.029736
120	0xc14bc2c8	-12.735054
121	0x40ac3261	5.38115
122	0xc05b4bee	-3.4265094
123	0x3ea3b28f	0.31972167
124	0x40a2320a	5.0686083
125	0x42912582	72.57326
126	0x3f8fbd39	1.1229621
127	0xbe956050	-0.29175043
128	0x40ed3493	7.4126678
129	0xc0669d16	-3.6033378
130	0xc02b67f8	-2.6782207
131	0x42a56342	82.69386
132	0xbf733832	-0.9500762
133	0x410a170b	8.630626
134	0x41dbfbdd	27.49798
135	0x3f0752b7	0.5286059
136	0x40ebea85	7.372378
137	0x428dd200	70.91016
138	0xc1488fb9	-12.535089
139	0xc15052a0	-13.020172
140	0x3fc07133	1.5034546
141	0xc1257de2	-10.343233
142	0x40d908d0	6.7823257
143	0xc1ff8d15	-31.943888
144	0xbf48d7b2	-0.78454125
145	0x3f35dde7	0.7104172
146	0x3f0492c6	0.5178646
147	0xbef2210b	-0.47290835
148	0xbe70e902	-0.23526385
149	0xbeaeeaf2	-0.34163624
150	0xc1988ca7	-19.068678
151	0xc087ed7d	-4.2477403
152	0xc01a1b07	-2.4078996
153	0x414484a9	12.282388
154	0x41639b64	14.225437
155	0x4272149c	60.520126
156	0x40eb337e	7.3500357
157	0x40ae9c36	5.4565687
158	0x418cd430	17.603607
159	0xc09c0ed9	-4.8768125
160	0xbfbe33c3	-1.4859546
161	0xc241e90a	-48.477577
162	0xc0c6fe16	-6.2185163
163	0x40b99198	5.7990227
164	0x3f103649	0.5633283
165	0xbfe0655c	-1.7530932
166	0x404e6457	3.2248743
167	0xc255d4e7	-53.457912
168	0xbf8b666c	-1.0890632
169	0x3f8f6b86	1.1204689
170	0xbeee7b60	-0.46578503
171	0x3f8d8931	1.1057492
172	0xbf6b520f	-0.91922086
173	0x3f2c56b9	0.6731983
174	0x3f79c917	0.97572464
175	0x3f80f6ad	1.007528
176	0x4062e939	3.5454848
177	0xc07afd50	-3.921711
178	0x40484976	3.1294837
179	0xc0f94f01	-7.790894
180	0x4102c397	8.172751
181	0x419f479c	19.909966
182	0x412ea32e	10.914839
183	0x417d19dc	15.818813
184	0xc1b4b592	-22.588657
185	0xc2400480	-48.004395
186	0x3fadd53a	1.3580697
187	0xc17ad429	-15.676797
188	0xc0697969	-3.6480353
189	0xc0a66cc4	-5.200777
190	0xc100495a	-8.017908
191	0x424be95a	50.977882

bias f4 [32]
0	0x4181d2bc	16.227898
1	0xc00dc45f	-2.2151105
2	0xc13ee24e	-11.93025
3	0x40c94b7a	6.2904634
4	0x40c7c19f	6.2423854
5	0x418506ba	16.628284
6	0xc004c982	-2.074799
7	0x40d32df7	6.599361
8	0xc1ab3797	-21.402143
9	0x415e49ea	13.893045
10	0x41a2e583	20.362066
11	0xc0f7b0aa	-7.7403154
12	0xc14c09b2	-12.752367
13	0x4081316c	4.037283
14	0x410098b8	8.037285
15	0xc1937486	-18.431896
16	0xc07597a1	-3.8373797
17	0xc1274bd7	-10.456016
18	0xc01d28f1	-2.4556239
19	0x404dd84c	3.2163267
20	0xc151ba34	-13.10796
21	0x3f8e8884	1.1135411
22	0x40645335	3.5675786
23	0x421546dd	37.319202
24	0xc0354f40	-2.832962
25	0xc0213d7c	-2.5193777
26	0x4184ad15	16.584513
27	0x41de0a9e	27.755184
28	0xc09b0e5b	-4.8455024
29	0xc1798353	-15.594562
30	0xc05c1b01	-3.4391482
31	0xc1a62410	-20.767609

weight f4 [104, 32]
0	0x41aba68b	21.45632
1	0xbe9b8a4f	-0.3037896
2	0xc1752241	-15.320863
3	0x41452bec	12.323223
4	0x41c14853	24.160315
5	0x41a69f89	20.827898
6	0x41168123	9.4065275
7	0x40f1ceb3	7.556482
8	0xbf321c7d	-0.6957472
9	0x4194a5a0	18.580872
10	0x41afddb8	21.983261
11	0xc0f64906	-7.696414
12	0x407194a1	3.7746966
13	0x41804840	16.035278
14	0x41ab964b	21.448385
15	0x4062f6ff	3.5463254
16	0xc132e879	-11.181756
17	0xc1652acd	-14.322949
18	0xbf7b78ad	-0.9823101
19	0x415104dc	13.063686
20	0xc1a10f3f	-20.132444
21	0xc1a983db	-21.189383
22	0xc15a276b	-13.634624
23	0x4226afef	41.67181
24	0x3f006732	0.50157464
25	0xc180dda7	-16.108229
26	0x41b15d21	22.170473
27	0x42090668	34.256256
28	0xbfa6cd57	-1.3031415
29	0xbda87f5c	-0.08227417
30	0x413e41c0	11.891052
31	0xbfa1e4c1	-1.2647935
32	0xc1307933	-11.02959
33	0x3f0465cc	0.5171783
34	0x41d7c754	26.972328
35	0xc0c94abf	-6.2903743
36	0xc196fc49	-18.873186
37	0xc181833d	-16.189081
38	0xc1576570	-13.462265
39	0xc083c35d	-4.117598
40	0x406f19cc	3.7359495
41	0xc158a27a	-13.539667
42	0xc16ca931	-14.7913065
43	0x4188dd12	17.107944
44	0xbfdf7334	-1.7457032
45	0xc0ba593f	-5.8233943
46	0xc0c534c7	-6.1626925
47	0xbf52dc43	-0.8236734
48	0x41a52344	20.64222
49	0x41c19ac5	24.200571
50	0x3f918e97	1.137164
51	0xc055e7b7	-3.3422678
52	0x41f65af3	30.794409
53	0x41f2f7fb	30.371084
54	0x4201f9b9	32.49387
55	0xc1f43521	-30.525942
56	0xbe514711	-0.20437266
57	0x41ca450a	25.28371
58	0xc188597a	-17.04369
59	0xc18cff41	-17.624636
60	0x4026a0f3	2.6035736
61	0x402cd7f5	2.700681
62	0xc0cc91fb	-6.39282
63	0x411632eb	9.387431
64	0x3f075c33	0.5287506
65	0x3ed5d116	0.41761082
66	0xc0a556c4	-5.1668415
67	0x402e1a50	2.720356
68	0x3f31ee22	0.69503987
69	0xc02760e8	-2.6152897
70	0x3f6cb023	0.92456263
71	0xc0361936	-2.8452888
72	0xc0a9cdfe	-5.3063955
73	0xc13d371f	-11.825957
74	0x3ff98938	1.9495001
75	0xbfc3def5	-1.5302416
76	0x3f3c8f62	0.73656285
77	0xc0d05f84	-6.5116596
78	0xc0a4a745	-5.1454186
79	0xc09fe4b1	-4.9966664
80	0xc0ca6309	-6.3245893
81	0xc10dda32	-8.86577
82	0xbf16946e	-0.58820236
83	0x401e8b84	2.4772654
84	0xc0581d62	-3.3767934
85	0xc0c74505	-6.227175
86	0xc0d2c1e0	-6.5861664
87	0xc0431ebb	-3.0487506
88	0xbf1f5e5c	-0.62253356
89	0xc0ee28bc	-7.4424725
90	0xc082e6cc	-4.0906734
91	0xc146bff4	-12.421864
92	0xc0179ecd	-2.3690674
93	0x3fdec05b	1.7402452
94	0xc012272b	-2.2836406
95	0xbf8dbd21	-1.1073343
96	0xbf847eb6	-1.0351169
97	0xbdbf54fb	-0.093423806
98	0xbf2c9a15	-0.6742261
99	0xbf8cff2f	-1.1015376
100	0xbf63d165	-0.88991386
101	0xbf109fcc	-0.5649383
102	0xc00fbc61	-2.2458727
103	0xc0720ec3	-3.782151
104	0x3e9e689d	0.3093919
105	0x3e51c511	0.20485331
106	0xbfd26a44	-1.643868
107	0xbf4a444e	-0.79010475
108	0xbe4ce084	-0.20007521
109	0x3f55a229	0.8345056
110	0xbdf02527	-0.11725836
111	0xbfa5fea1	-1.2968332
112	0x3ed8a4be	0.42313188
113	0xbfa6a7bd	-1.301994
114	0x3edfd47a	0.43716794
115	0xbf450bf5	-0.7697137
116	0xbf54ec24	-0.8317282
117	0x3e0d8627	0.13820706
118	0xbf510560	-0.81648827
119	0xc00408a2	-2.063027
120	0xbf96a4a7	-1.1768998
121	0x3f02f7ef	0.51159567
122	0xbfb92360	-1.446392
123	0xbf7cbea1	-0.98728377
124	0x3f9b037f	1.2110442
125	0x3d20f152	0.03929264
126	0xbf95530d	-1.166597
127	0x3ece0f18	0.4024589
128	0xc063c807	-3.5590837
129	0x3ea6ca43	0.32576188
130	0xbfc26d79	-1.5189658
131	0xc0548099	-3.320349
132	0xbed2abaa	-0.41146594
133	0xc0763d7a	-3.8475022
134	0xbff59bcd	-1.9188172
135	0xc0232c77	-2.549589
136	0x3e6f6556	0.233785
137	0xbfcc5206	-1.5962532
138	0xbe6e2f28	-0.23260176
139	0xc00de695	-2.2171986
140	0xc02d3d4f	-2.706867
141	0xc0546609	-3.3187277
142	0xbfcc5a69	-1.5965091
143	0xbfa3c0e5	-1.2793242
144	0xbff5d4d2	-1.9205573
145	0xc031c666	-2.7777343
146	0xbf95587c	-1.1667628
147	0xc0765119	-3.8486998
148	0xbfaf0877	-1.3674458
149	0xc0057945	-2.0855267
150	0xc02fd91c	-2.7476263
151	0xbd1fddc0	-0.039029837
152	0xbfc5601d	-1.5419956
153	0xbf863408	-1.0484629
154	0xc0f429f1	-7.63012
155	0xbf8a271d	-1.0793186
156	0xbc1c7b4b	-0.00955088
157	0xbeabec7e	-0.33578867
158	0xc02f8f2c	-2.7431135
159	0xbfa6bdcb	-1.302667
160	0xbf1b07b0	-0.60558605
161	0xbf77a294	-0.9673245
162	0xbfa684e6	-1.3009307
163	0xbfb5f96a	-1.421674
164	0xbdda1a8a	-0.10649593
165	0xbecc13ce	-0.3985886
166	0xbe050203	-0.12989049
167	0xbfa0649a	-1.2530701
168	0xbf38d669	-0.72202164
169	0xbfbfe2c2	-1.4991076
170	0xbf989851	-1.1921483
171	0xbdfc3e6d	-0.12316594
172	0xbf856fd9	-1.0424758
173	0xbf7fc337	-0.9990725
174	0xbe0f5d71	-0.14000489
175	0xbe9cefb5	-0.30651632
176	0xbfa49350	-1.2857456
177	0xbf29e1fe	-0.6636046
178	0xbd74dbfa	-0.0597801
179	0xbfadbabb	-1.3572611
180	0xbf3dfac9	-0.7421079
181	0xbf46b893	-0.7762539
182	0xbfb252f6	-1.3931568
183	0x3ec9c854	0.3941065
184	0xbe296ca3	-0.16545348
185	0xbfc3f612	-1.530947
186	0xbf24309d	-0.6413668
187	0xbf5bd896	-0.8587736
188	0xc007d371	-2.1222804
189	0xbfa8eb52	-1.3196814
190	0xbfa66a0a	-1.300111
191	0xbfdb0c32	-1.7113097
192	0xbf34bcc3	-0.7060053
193	0xbf19dc8a	-0.6010214
194	0xbf2ef2a4	-0.6833899
195	0xbee0b12c	-0.4388517
196	0xbca62ee6	-0.020286035
197	0x3e5450d9	0.20733966
198	0xbfae1a45	-1.3601767
199	0x3f1167ae	0.5679883
200	0xbfb9558d	-1.4479233
201	0xbfd6c17d	-1.6777798
202	0xbef042ad	-0.4692587
203	0xbf66888a	-0.9005209
204	0xbe155c50	-0.14585996
205	0x3db68b9e	0.089133486
206	0xbaa15084	-0.0012307321
207	0xbe6ec987	-0.23319064
208	0xbe7e3cac	-0.24827832
209	0xbe9d68b6	-0.3074395
210	0x3f5618f0	0.836318
211	0xbeba5f63	-0.364009
212	0xc06b9952	-3.681233
213	0xbf9f6c69	-1.2454959
214	0xbf4e5b03	-0.8060762
215	0xbfb65843	-1.4245685
216	0xbf336b3d	-0.7008551
217	0xbfe29bbf	-1.770378
218	0xbe1627f1	-0.14663674
219	0xbf3ce131	-0.73781115
220	0xbf59c7fb	-0.8507077
221	0xbf3e83b9	-0.7441974
222	0xc04f06eb	-3.2347972
223	0xc01d312e	-2.4561267
224	0xbfb2e90e	-1.3977373
225	0xbf47d216	-0.7805494
226	0xbec5e0a2	-0.38647944
227	0xbfa15ac5	-1.2605826
228	0xbf7fbf9c	-0.9990175
229	0xbfe5dc2b	-1.7957815
230	0xbf9f5895	-1.2448908
231	0xbf9e513d	-1.2368542
232	0xbf8f5d8a	-1.1200421
233	0xbed7abb1	-0.42123178
234	0xbfe7c041	-1.8105546
235	0xbfa6306b	-1.2983526
236	0xbf7dfcf1	-0.9921408
237	0xbf269aaa	-0.6507975
238	0xbfa60382	-1.296982
239	0xbf96c10c	-1.1777663
240	0xbe958a9a	-0.29207307
241	0xbfdc4481	-1.7208406
242	0xbf9303d7	-1.1485547
243	0xbfd0f616	-1.63251
244	0xbfaf2bb2	-1.368521
245	0xbfa78746	-1.3088157
246	0xbe37f6b9	-0.17965211
247	0xbfa107b3	-1.2580475
248	0xbfd00e2f	-1.6254328
249	0xbfdd49e2	-1.7288172
250	0xbfa240eb	-1.2676061
251	0xbf9306dd	-1.148647
252	0xbeb61872	-0.35565525
253	0xbfadfa82	-1.3592074
254	0xbf3d7320	-0.7400379
255	0xbfb2c947	-1.3967675

bias f4 [104]
0	0x424a71de	50.6112
1	0xc186b04a	-16.836079
2	0xc14666ac	-12.400066
3	0xbf456cb8	-0.77119017
4	0xc05325ec	-3.2991896
5	0xbef6a29d	-0.4817094
6	0xc0124123	-2.2852256
7	0xc043e2b9	-3.060713
8	0xc045a629	-3.0882666
9	0xc00c682e	-2.1938586
10	0xc01fdafe	-2.4977412
11	0xc00fd175	-2.2471592
12	0xc04a217f	-3.1582944
13	0xc0379cb2	-2.868939
14	0xbf707231	-0.9392424
15	0xbfa84196	-1.3145015
16	0xbfd721d9	-1.6807204
17	0xbfee17c7	-1.8601006
18	0xc15236ac	-13.138348
19	0xc03f1fab	-2.9863079
20	0xc042b627	-3.0423677
21	0xc00ef41f	-2.23365
22	0xc03c73ee	-2.9445758
23	0xbfcf15c7	-1.6178521
24	0xc03c30aa	-2.9404702
25	0xc091e506	-4.559207
26	0xbf54c578	-0.83113813
27	0xc04f148f	-3.2356298
28	0xc0216668	-2.5218754
29	0xc039b5ac	-2.9017134
30	0xc05090ba	-3.2588334
31	0xc039e8a6	-2.9048247
32	0xc07106db	-3.7660434
33	0xc0210f67	-2.516565
34	0xc05700d3	-3.3594253
35	0xc082cc5b	-4.0874457
36	0xc12b2ffa	-10.699213
37	0xc057954d	-3.3684876
38	0xc05e0cbb	-3.469527
39	0xc03fbbe0	-2.995842
40	0xc0117e7f	-2.2733457
41	0xbf9ad647	-1.2096642
42	0xc0703e20	-3.7537918
43	0xc06c3f5d	-3.6913674
44	0xc016c062	-2.355492
45	0xc045ab33	-3.0885742
46	0xc04f3760	-3.2377548
47	0xc04520bc	-3.080123
48	0xc0676808	-3.6157246
49	0xc010f2fd	-2.2648308
50	0xc02fb805	-2.7456067
51	0xc198828a	-19.06374
52	0xc053da5b	-3.3102024
53	0xc031a980	-2.7759705
54	0xc04c15b9	-3.1888258
55	0xc023182d	-2.5483506
56	0xc028f817	-2.6401422
57	0xc053a7fb	-3.3071277
58	0xc0538fba	-3.3056474
59	0xc057b0bd	-3.3701622
60	0xc0608e6b	-3.5086925
61	0xc048377b	-3.1283863
62	0xc0584090	-3.3789406
63	0xc00a672f	-2.1625478
64	0xc0595d6e	-3.3963275
65	0xc04fd8f9	-3.247618
66	0xc0495e51	-3.1463816
67	0xc04241fc	-3.0352774
68	0xc046a2a4	-3.1036768
69	0xc0624f43	-3.5360878
70	0xc05b2653	-3.4242141
71	0xc056135e	-3.344932
72	0xc062aeb4	-3.541913
73	0xc0536cf0	-3.303524
74	0xc06f2f69	-3.7372687
75	0xc063e1ed	-3.5606644
76	0xc06953e4	-3.6457453
77	0xc04756c4	-3.1146708
78	0xc05e8b71	-3.4772608
79	0xc06b251d	-3.6741402
80	0xc04db988	-3.214449
81	0xc056c5f8	-3.355833
82	0xc0569e89	-3.3534262
83	0xc05cbfcc	-3.4492064
84	0xc045f9e4	-3.093377
85	0xc0205a2a	-2.5055032
86	0xc04a4fea	-3.1611276
87	0xc055e203	-3.3419197
88	0xc0578d93	-3.368016
89	0xc0667497	-3.600866
90	0xc044b4f3	-3.0735443
91	0xc069ca41	-3.6529696
92	0xc057dea4	-3.372964
93	0xc06d092b	-3.7036846
94	0xc05965e6	-3.3968444
95	0xc03da95f	-2.9634626
96	0xc0665ac7	-3.5992906
97	0xc0626a67	-3.5377443
98	0xc068ac2a	-3.635508
99	0xc06af77f	-3.671356
100	0xc06a0b59	-3.6569426
101	0xc0674c8c	-3.614047
102	0xc04e0092	-3.2187848
103	0xc06e7d71	-3.7264063
