models/pytorch_multi_classification_beer_v3.pt (torch, 16863 bytes, 4 tensors)

weight f4 [32, 6]
0	0xc03b7470	-2.9289818
1	0x3fb3a57d	1.4034878
2	0xc0e8cfa3	-7.2753463
3	0xc0c2f087	-6.0918612
4	0x40fde1ad	7.9337983
5	0x4259d2c8	54.45584
6	0x40572ccc	3.3621092
7	0xc0a5d252	-5.181924
8	0x4106f5c2	8.434999
9	0x40d06219	6.511975
10	0xc0c5470f	-6.164924
11	0xc24912d4	-50.268387
12	0xc0b74526	-5.727191
13	0x409e5b9d	4.9486833
14	0x418808a9	17.004229
15	0x3e2cce30	0.1687553
16	0xc0e282c2	-7.0784616
17	0x418358ac	16.418297
18	0x4105b23a	8.356012
19	0xc1a6cbb6	-20.849468
20	0x4081f510	4.061165
21	0x40909d05	4.5191674
22	0xc12163fc	-10.08691
23	0xc1fa0980	-31.254639
24	0x40d8ba7c	6.772764
25	0x410524d6	8.321493
26	0x40db9e46	6.8630705
27	0x3fc2026e	1.5156991
28	0x401fbff0	2.49609
29	0xc21f8590	-39.880432
30	0xc047f9e5	-3.1246274
31	0xc06925ba	-3.6429276
32	0x3faf4131	1.369177
33	0xc11d558d	-9.833386
34	0x413daa64	11.854099
35	0xc23c74ce	-47.114067
36	0xbf885ab3	-1.0652679
37	0x417e8210	15.906754
38	0xc0d2fec9	-6.5936017
39	0xc0e1b634	-7.0534916
40	0x41735513	15.20827
41	0x425e1d81	55.528812
42	0xc0e47834	-7.139673
43	0xbf0fb64c	-0.5613754
44	0x4136904f	11.410232
45	0xbf27d126	-0.6555351
46	0x4017055e	2.3597026
47	0x4268e413	58.22273
48	0xbe8bedb5	-0.27329794
49	0x3f0ef373	0.55840224
50	0x3eaeb84a	0.34124976
51	0xbe9d6a2b	-0.30745062
52	0x3fbd6e62	1.4799311
53	0xc0568712	-3.351994
54	0xc0912aaa	-4.536458
55	0x4098e80c	4.778326
56	0x4014e9e8	2.3267765
57	0xc0e0700f	-7.013679
58	0x3f8195b7	1.0123814
59	0xc1a26eef	-20.304167
60	0x3ddcee32	0.1078762
61	0xc09bc8e4	-4.868273
62	0x40bf456b	5.977224
63	0xc0e9d036	-7.3066664
64	0xbfdf8988	-1.7463846
65	0xc22a04d5	-42.50472
66	0xbee8d54d	-0.45475236
67	0xc03021f1	-2.7520716
68	0xbeb8abfc	-0.36068714
69	0x4026cc7b	2.6062305
70	0x3fc391a8	1.5278826
71	0xc04021ed	-3.0020707
72	0xbf31ef99	-0.6950622
73	0xbfb09997	-1.3796872
74	0x3fc3079d	1.5236698
75	0x3f51d2e5	0.81962425
76	0x3f2cdcb5	0.6752427
77	0xc0ea3999	-7.319531
78	0xbfa30052	-1.2734473
79	0x3f888dd6	1.0668285
80	0x3fb73236	1.4312198
81	0xbf809af5	-1.0047289
82	0xbfef3466	-1.8687866
83	0xbe55141c	-0.20808452
84	0xc05f146b	-3.4856212
85	0x3e04e51d	0.12978025
86	0xbf84c672	-1.0373061
87	0xbf1eec9a	-0.62079775
88	0x3f0d32b7	0.5515551
89	0xc1007ad6	-8.029989
90	0x3f0aca71	0.5421515
91	0xc0667bb1	-3.6012995
92	0x40931b17	4.597057
93	0x40213251	2.518696
94	0x40ea8123	7.3282638
95	0xc230a3d6	-44.159996
96	0x407ad7d5	3.9194233
97	0xc0aadf93	-5.339792
98	0xc108a28b	-8.539683
99	0xc02f2141	-2.7364047
100	0xbfbc5c65	-1.4715697
101	0xc211d6dc	-36.459824
102	0xbff7e4ff	-1.9366759
103	0x3f984c76	1.1898334
104	0x3eadfc43	0.33981523
105	0x3edc9292	0.43080574
106	0xbf153eae	-0.58298767
107	0xbffbe204	-1.967835
108	0xc11ca44c	-9.790112
109	0x3f652298	0.8950591
110	0x41574a4b	13.455638
111	0x415fed1c	13.995388
112	0x40c9e240	6.3088684
113	0xc2137374	-36.862747
114	0xc0a9c965	-5.3058343
115	0x408735ff	4.2253413
116	0x41182d36	9.511038
117	0x4139a2b5	11.602223
118	0x4106ae3c	8.417538
119	0xc1abdedc	-21.483818
120	0xc0ed5e44	-7.417757
121	0x40322da3	2.7840354
122	0xc0c24884	-6.071352
123	0xc00df1da	-2.2178864
124	0xc113bb09	-9.233163
125	0xc1a6ce55	-20.850748
126	0xc15f4b40	-13.955872
127	0x406c97b1	3.6967585
128	0xc117c8d9	-9.486535
129	0xc189729a	-17.180958
130	0xc08f3e9d	-4.476393
131	0xc1a53f2f	-20.655851
132	0x40e5a2f7	7.176143
133	0xc06105aa	-3.5159707
134	0xc126bc5a	-10.420984
135	0xc06072bb	-3.5070026
136	0xc0207770	-2.50729
137	0xc2288324	-42.128067
138	0xc07efde1	-3.9842455
139	0x411221ae	9.133223
140	0xc09ec119	-4.9610715
141	0x4101a299	8.102197
142	0x3deb3c8f	0.1148616
143	0xc22b21d1	-42.783024
144	0x40dd9436	6.924342
145	0x40ea2791	7.31733
146	0xc0db1dfd	-6.8474107
147	0x40ce2bdb	6.4428535
148	0x3f631345	0.8870128
149	0x42519953	52.39973
150	0xc1b51388	-22.634537
151	0x4141ed9f	12.120513
152	0xc09fe90b	-4.9971976
153	0xc0838b6a	-4.1107683
154	0xbe7af692	-0.24508122
155	0xc22db8b9	-43.430393
156	0x409d85ed	4.9225984
157	0x4039f08a	2.9053063
158	0x3ffdf522	1.9840434
159	0x40d2bebb	6.5857825
160	0xc127e88b	-10.494273
161	0x4281aa2b	64.83236
162	0xc0500479	-3.250273
163	0xc18b9127	-17.445875
164	0x40715cd0	3.7712898
165	0x41505bc2	13.022402
166	0x40c2b8e4	6.0850697
167	0xc19f934c	-19.946922
168	0xc085a581	-4.176453
169	0x40c5588c	6.167059
170	0xc194e7eb	-18.613241
171	0x3f5e9e98	0.86960745
172	0xbfd713e8	-1.680295
173	0xc21511c2	-37.26734
174	0xc1483c95	-12.514791
175	0xbfe4c39e	-1.7872198
176	0x3ead8a86	0.33894747
177	0x4126323a	10.387262
178	0xbfd8fd9e	-1.6952398
179	0xc1eae52a	-29.361897
180	0x3ef55dc5	0.47923103
181	0x4109bb8e	8.60829
182	0x415eb291	13.918595
183	0xbf835f71	-1.0263501
184	0xbfa30954	-1.2737222
185	0x4256e1be	53.72045
186	0x4112eebf	9.183288
187	0x40ebbe07	7.3669467
188	0xc06b83fc	-3.6799307
189	0x4012231d	2.2833931
190	0x41086cd1	8.5265665
191	0x424adf4e	50.71807

bias f4 [32]
0	0x40a69e39	5.2068143
1	0x4165ccbd	14.362485
2	0xbf972172	-1.1807082
3	0x40aecd91	5.4625936
4	0x40b88b4d	5.7670045
5	0x4105e37e	8.36804
6	0x3f95963b	1.1686472
7	0x40c41906	6.1280546
8	0xc114faad	-9.3112
9	0x412d5e6e	10.835554
10	0x4189579e	17.167782
11	0xc105c636	-8.360891
12	0xc1568991	-13.408586
13	0xc105ed71	-8.370469
14	0xc186f25e	-16.868343
15	0x4181f4c8	16.244522
16	0x4187ed3c	16.990837
17	0xc0b18832	-5.5478754
18	0x418edb49	17.857073
19	0xbf10f0fc	-0.5661771
20	0xc19b0226	-19.376049
21	0xc08fd0c3	-4.4942336
22	0x4121845a	10.094812
23	0x41964b3c	18.786736
24	0x3fa714a3	1.3053173
25	0x4121625c	10.0865135
26	0x40e8f7cc	7.2802486
27	0x40a63ec0	5.19516
28	0x40a8ecff	5.27893
29	0xc05b6347	-3.4279344
30	0xc08d60f9	-4.4180875
31	0xc112e79d	-9.181546

weight f4 [104, 32]
0	0xbfa324e1	-1.274563
1	0xbf972e7f	-1.1811064
2	0xbf9a0705	-1.2033392
3	0xbfb2cb87	-1.3968362
4	0xbf89aa17	-1.0755032
5	0xbfd1d1c4	-1.639214
6	0xbf920445	-1.1407553
7	0xbfdd5cf9	-1.7293998
8	0xbf93f1f0	-1.1558208
9	0xbf9ce45e	-1.2257192
10	0xbfaa8f4a	-1.3324978
11	0xbf81cbd3	-1.0140327
12	0xbf9901e9	-1.1953708
13	0xbf99d41e	-1.2017858
14	0xbf9e2544	-1.2355123
15	0xbfb4f2a8	-1.4136553
16	0xbf9af21e	-1.2105138
17	0xbf9c55d3	-1.2213691
18	0xbfa380db	-1.2773699
19	0xbfbc3080	-1.4702301
20	0xbf875b45	-1.0574728
21	0xbf89c943	-1.0764545
22	0xbfb6e5a9	-1.4288837
23	0xbfb34bfe	-1.4007566
24	0xbf8de989	-1.1086894
25	0xbfbb9bca	-1.4656918
26	0xbf898935	-1.0744997
27	0xbf6256ae	-0.8841351
28	0xc00c8828	-2.1958103
29	0xbf6a93fe	-0.9163207
30	0xbf7396d3	-0.95152014
31	0xbfc8c9f6	-1.5686634
32	0xbfb0f16e	-1.3823678
33	0x3e97c494	0.29642165
34	0xbf8be68b	-1.0929731
35	0xbf909b9f	-1.1297492
36	0xbfb2410a	-1.3926098
37	0xbf218670	-0.6309576
38	0xbf6553a1	-0.8958073
39	0xbf813dc9	-1.009698
40	0xbf635839	-0.8880649
41	0xc02ff6f9	-2.749449
42	0xbf91f6e4	-1.140347
43	0xbe8462ef	-0.2585673
44	0xbf997790	-1.1989613
45	0xbf2f64b8	-0.6851306
46	0xbfa7d44a	-1.311166
47	0xbf8ab759	-1.0837203
48	0xbf66b16a	-0.9011446
49	0xbfc2837d	-1.5196377
50	0xc00d1c69	-2.204859
51	0xbfe012bf	-1.7505721
52	0xbe229767	-0.15878068
53	0x3eac4032	0.33642727
54	0xbe0edb3f	-0.13950823
55	0xbecfb5aa	-0.40568286
56	0xbfc304c4	-1.5235829
57	0xbfa8be4a	-1.3183072
58	0x3e0c21dd	0.13684793
59	0xbe9d42d9	-0.30715063
60	0xbfc77f0f	-1.558565
61	0xbf91600d	-1.1357437
62	0xbf6b1499	-0.91828305
63	0xbfe5fa14	-1.7966943
64	0xc1074e48	-8.456612
65	0xc07476da	-3.8197541
66	0xbf420b64	-0.7579863
67	0xc005b071	-2.0888941
68	0xbe86ed27	-0.26352808
69	0xc019bf14	-2.4022875
70	0xc0287b54	-2.6325274
71	0xc03a0679	-2.906645
72	0xc000a7bd	-2.010238
73	0x3ed25378	0.41079307
74	0xc08a38cd	-4.3194337
75	0x40817c4b	4.0464225
76	0xbfb0951b	-1.3795503
77	0xbfdc1f59	-1.7197067
78	0xbf3c441d	-0.7354143
79	0xc0072230	-2.1114616
80	0xbe73eec6	-0.23821554
81	0xbf354cad	-0.7082012
82	0xc08d5c33	-4.417505
83	0xc0d38399	-6.609814
84	0xbfe66c0b	-1.8001722
85	0xbf6d291e	-0.92640865
86	0xbeeff7b1	-0.4686866
87	0x40353243	2.8311927
88	0xc09a7ada	-4.8274965
89	0xc0381c83	-2.8767402
90	0x3f16e853	0.5894825
91	0xc0412102	-3.0176396
92	0xc0956f08	-4.6698036
93	0xbde68748	-0.112562716
94	0x3dbb4751	0.09144462
95	0x3f1159b6	0.56777513
96	0xbf7ad6c9	-0.97983986
97	0xbf9751f0	-1.182188
98	0xbfaa4d2d	-1.3304802
99	0xbfaa05c0	-1.3283005
100	0xbf973906	-1.1814277
101	0xbfc8aa91	-1.5677053
102	0xbf752745	-0.95763046
103	0xbfa2565e	-1.2682607
104	0xbf9d72cb	-1.2300657
105	0xbf0c4865	-0.54797965
106	0xbfafb248	-1.3726282
107	0xbf8da482	-1.1065829
108	0xbf9c275e	-1.2199514
109	0xbf867932	-1.0505736
110	0xbfa5aedd	-1.2943989
111	0xbf9fa061	-1.2470819
112	0xbf200c19	-0.6251846
113	0xbf858d67	-1.0433778
114	0xbf533fe2	-0.8251935
115	0xbf800278	-1.0000753
116	0xbf979ad0	-1.184412
117	0xbeff6f2b	-0.49889502
118	0xbe3750d6	-0.1790193
119	0xbf8a8282	-1.0821078
120	0xbf943e88	-1.1581583
121	0xbfb19074	-1.3872209
122	0xbf91af5f	-1.1381644
123	0xbf768423	-0.96295375
124	0xc00d64ac	-2.2092695
125	0xbf5f5e2b	-0.87253064
126	0xbf5e3792	-0.86803544
127	0xbfca269e	-1.5793035
128	0xbf60efff	-0.87866205
129	0xbf91d10e	-1.1391923
130	0xbfb1c0b9	-1.3886939
131	0xbfadcdbf	-1.3578414
132	0xbfa0bb78	-1.2557211
133	0xbfdeafe2	-1.7397425
134	0xbf2e0af6	-0.67985475
135	0xbff2a58e	-1.8956773
136	0xbf9d0ee9	-1.2270175
137	0xbf81f1f2	-1.0151961
138	0xbf87b136	-1.0600955
139	0xbf8c77ae	-1.0974023
140	0xbfa70920	-1.304966
141	0xbfa0f136	-1.2573612
142	0xbf8a7420	-1.0816689
143	0xbf9dc9f9	-1.2327262
144	0xbfe6d972	-1.8035109
145	0xbf9e655f	-1.2374686
146	0xbf83c4a6	-1.0294387
147	0xbfb663a0	-1.4249153
148	0xbf915957	-1.1355389
149	0xbee1c1b7	-0.44093105
150	0xbf9f334b	-1.2437528
151	0xbf790d03	-0.9728548
152	0xbf68d652	-0.90952027
153	0xbfb8557c	-1.4401088
154	0xbf8dd930	-1.1081905
155	0xbf8e8f5f	-1.1137503
156	0xc016f37f	-2.3586118
157	0xbf9015e1	-1.1256677
158	0xbf2386d9	-0.63877636
159	0xbfe9bad4	-1.826014
160	0xbfc55bde	-1.5418661
161	0xbfa728dd	-1.3059345
162	0xbfac45be	-1.3458784
163	0xbfbc5968	-1.4714785
164	0xbdbcfd2d	-0.09227977
165	0xbfcd2494	-1.6026788
166	0xbf7eb002	-0.99487317
167	0xbfa5a03c	-1.2939525
168	0xbfa528d9	-1.2903091
169	0xbfab5c4b	-1.338754
170	0xbfad52ea	-1.3540928
171	0xbf89764a	-1.0739224
172	0xbfa259bd	-1.2683636
173	0xbfa61c6a	-1.2977421
174	0xbfcb4448	-1.5880213
175	0xbfbe7fac	-1.4882712
176	0xbfba907f	-1.4575347
177	0xbfa3fe0e	-1.2811906
178	0xbfa8b6db	-1.3180803
179	0xbfd0c332	-1.6309569
180	0xbe6e5e66	-0.23278198
181	0xbf73247e	-0.9497756
182	0xbfb88843	-1.4416584
183	0x3d13de88	0.036100894
184	0xbfaa3f34	-1.3300538
185	0xbfba9285	-1.4575964
186	0xbf89ea48	-1.0774622
187	0xbf0b6d51	-0.5446368
188	0xbfff0553	-1.99235
189	0xbf715fff	-0.94287103
190	0xbf69060d	-0.9102486
191	0xbfc8c673	-1.5685562
192	0xbfbfed6b	-1.4994329
193	0xbf9d1582	-1.2272189
194	0xbfb6ce0b	-1.4281629
195	0xbfbceff8	-1.4760733
196	0xbf8f8580	-1.1212616
197	0xbfbaa1f3	-1.4580673
198	0x3d460851	0.048347775
199	0xbfe66dde	-1.8002279
200	0xbf92431f	-1.1426734
201	0xbf8c05d5	-1.093928
202	0xbf97f605	-1.1871954
203	0xbe79d27a	-0.24396697
204	0xbfaba64d	-1.3410126
205	0xbfaeb056	-1.3647563
206	0xbf98134a	-1.1880887
207	0xbfc49aee	-1.5359781
208	0xbfad4fab	-1.3539938
209	0xbf895f2b	-1.0732168
210	0xbf9182fb	-1.1368097
211	0xbf386581	-0.7202988
212	0xbe81ea50	-0.2537408
213	0xbf95fc76	-1.171767
214	0xbfb0e6b3	-1.3820404
215	0xbea0ef0d	-0.3143238
216	0xbfac3d31	-1.3456174
217	0xbfa4e475	-1.288222
218	0xbf923dc8	-1.1425104
219	0xbf92f47a	-1.1480858
220	0xc00c8f38	-2.1962414
221	0xbf9a9105	-1.2075506
222	0xbf638351	-0.8887225
223	0xbfc815c9	-1.5631648
224	0xbfa4ad18	-1.2865324
225	0xbec726f2	-0.388969
226	0xbf0f0873	-0.5587227
227	0xbf891543	-1.0709614
228	0xbd5fe648	-0.054662973
229	0xbfda78f1	-1.7068158
230	0xc08819dd	-4.253157
231	0xbfcd91d8	-1.6060133
232	0xbeda5cf2	-0.42649037
233	0xbda1912a	-0.07889016
234	0xbf92fb19	-1.1482879
235	0xbf00be4c	-0.5029037
236	0xbdb89fad	-0.09014831
237	0xbee39f8a	-0.44457656
238	0xbfe8e9fe	-1.8196409
239	0xbfa79e1f	-1.309513
240	0xbfe01212	-1.7505515
241	0xbf664842	-0.89954007
242	0xbf595ba3	-0.8490545
243	0xbebcb690	-0.36858034
244	0xbf66cef5	-0.9015954
245	0xc01455f2	-2.3177457
246	0x3e2f8397	0.17140041
247	0xbf8ef1aa	-1.11675
248	0xbfae2fb6	-1.360831
249	0xbfcbc510	-1.5919514
250	0xbf5a2c77	-0.852241
251	0xbfa20279	-1.2657005
252	0xbf74869b	-0.9551789
253	0x3e71f804	0.23629767
254	0xbf1bdb71	-0.60881716
255	0xbfdecbe8	-1.7405977

bias f4 [104]
0	0xc0bacefe	-5.8377676
1	0xc061bacd	-3.5270264
2	0xc10478d2	-8.279497
3	0xc0b1f49b	-5.561109
4	0xc0981ab1	-4.753258
5	0xc0a126cf	-5.0359874
6	0xc0b2fec9	-5.5936017
7	0xc09239b0	-4.569542
8	0xc0b503b5	-5.6567025
9	0x4203d585	32.958515
10	0xc0b93618	-5.7878532
11	0xc00251d5	-2.0362446
12	0xc0c691e5	-6.2053094
13	0xc0b441fe	-5.6330557
14	0xc1202b7b	-10.010615
15	0xc0af7728	-5.4832954
16	0xc0955323	-4.6663985
17	0xc06d4a79	-3.7076705
18	0xc097c5b7	-4.742885
19	0xc06a7cd1	-3.6638682
20	0xc0577f35	-3.367139
21	0xc0b389d9	-5.610577
22	0xc0aa7cce	-5.327735
23	0xc02e1826	-2.720224
24	0xc0932728	-4.59853
25	0xc0a1ec59	-5.060101
26	0xc124f143	-10.308902
27	0xc0af6608	-5.481205
28	0xc0b2a053	-5.582071
29	0xc0adc76a	-5.4305925
30	0xc0b8b2a5	-5.771807
31	0xc0b2990d	-5.581183
32	0xc08b58ad	-4.3545747
33	0xc0aff5b1	-5.4987416
34	0xc0b03a4e	-5.5071173
35	0xc0aede94	-5.46467
36	0xc0ac1857	-5.377971
37	0xc0af88f4	-5.485468
38	0xc0aeecff	-5.46643
39	0xc0640de7	-3.5633485
40	0xc0b3c491	-5.617745
41	0xc0b5ee49	-5.6853375
42	0xc09619f6	-4.690669
43	0xc0b981da	-5.797101
44	0xc0ba8c73	-5.8296447
45	0xc0b7e6de	-5.746932
46	0xc0a05a9a	-5.0110598
47	0xc041d663	-3.0287101
48	0xc0bdd82d	-5.9326386
49	0xc09abb02	-4.835328
50	0xc0b89768	-5.768482
51	0xc0b60227	-5.6877627
52	0xc0a10e13	-5.032968
53	0xc048a603	-3.1351326
54	0xc0b498bc	-5.6436443
55	0xc0b77897	-5.7334704
56	0xc0b89a02	-5.7688
57	0xc08ab0a9	-4.334065
58	0xc0b0e912	-5.528451
59	0xc0b58410	-5.672371
60	0xc09a3fe5	-4.8202996
61	0xc0983766	-4.7567625
62	0xc0b26c2c	-5.5757046
63	0xc0b4c359	-5.648846
64	0xc0b314c5	-5.5962853
65	0xc099d18b	-4.806829
66	0xc0a92530	-5.2857895
67	0xc0b3fc5f	-5.624557
68	0xc0aa4074	-5.320368
69	0xc0b380c0	-5.6094666
70	0xc0b3404e	-5.6015997
71	0xc0b1b8f9	-5.5538297
72	0xc0b2304c	-5.5683956
73	0xc0b5469a	-5.6648684
74	0xc0a3b13d	-5.1153855
75	0xc0acf4ea	-5.4048967
76	0xc0b1e3c0	-5.5590515
77	0xc0b616a9	-5.690266
78	0xc0a1bc07	-5.0542026
79	0xc0a4c9f9	-5.149655
80	0xc0b32bdc	-5.599104
81	0xc0af439c	-5.477003
82	0xc09f3e9b	-4.9763923
83	0xc08b36fd	-4.3504624
84	0xc0a1fef5	-5.0623727
85	0xc0b3f592	-5.623727
86	0xc080d168	-4.0255623
87	0xc0b5629e	-5.668288
88	0xc0b6b652	-5.709756
89	0xc0ce45be	-6.4460135
90	0xc080db11	-4.0267415
91	0xc0a6d662	-5.21367
92	0xc0ad6746	-5.4188566
93	0xc0c11173	-6.03338
94	0xc0b7430b	-5.726934
95	0xc060310c	-3.5029936
96	0xc0b4369f	-5.6316676
97	0xc0b00a6f	-5.5012736
98	0xc0999250	-4.7991104
99	0xc04e344f	-3.2219427
100	0xc0908b6b	-4.517019
101	0xc17ed97b	-15.928096
102	0xc01eabb8	-2.4792309
103	0xc0a845b4	-5.2585087
